…
[38;5;15m  [39m[38;5;197mPRECISE_BN[39m[38;5;15m:[39m
[38;5;15m    [39m[38;5;197mENABLED[39m[38;5;15m:[39m[38;5;15m [39mfalse
[38;5;15m    [39m[38;5;197mNUM_ITER[39m[38;5;15m:[39m[38;5;15m [39m200
[38;5;197mVERSION[39m[38;5;15m:[39m[38;5;15m [39m2
[38;5;197mVIS_PERIOD[39m[38;5;15m:[39m[38;5;15m [39m0

[32m[05/25 17:43:23 detectron2]: [0mFull config saved to ./output/xception65_dsconv_369/config.yaml
[32m[05/25 17:43:23 d2.utils.env]: [0mUsing a generated random seed 24452051
[32m[05/25 17:43:30 d2.engine.defaults]: [0mModel:
PanopticDeepLab(
  (backbone): d2_xception_65(
    (conv1): Conv2d(3, 32, kernel_size=(3, 3), stride=(2, 2), padding=(1, 1), bias=False)
    (bn1): BatchNorm2d(32, eps=1e-05, momentum=0.1, affine=True, track_running_stats=True)
    (relu): ReLU()
    (conv2): Conv2d(32, 64, kernel_size=(3, 3), stride=(1, 1), padding=(1, 1), bias=False)
    (bn2): BatchNorm2d(64, eps=1e-05, momentum=0.1, affine=True, track_running_stats=True)
    (block1): XceptionBlock(
      (conv): Conv2d(64, 128, kernel_size=(1, 1), stride=(2, 2), bias=False)
      (bn): BatchNorm2d(128, eps=1e-05, momentum=0.1, affine=True, track_running_stats=True)
      (sep_conv1): SeparableConv2d(
        (block): Sequential(
          (relu): ReLU()
          (depthwise): Conv2d(64, 64, kernel_size=(3, 3), stride=(1, 1), padding=(1, 1), groups=64, bias=False)
          (bn_depth): BatchNorm2d(64, eps=1e-05, momentum=0.1, affine=True, track_running_stats=True)
          (pointwise): Conv2d(64, 128, kernel_size=(1, 1), stride=(1, 1), bias=False)
          (bn_point): BatchNorm2d(128, eps=1e-05, momentum=0.1, affine=True, track_running_stats=True)
        )
      )
      (sep_conv2): SeparableConv2d(
        (block): Sequential(
          (relu): ReLU()
          (depthwise): Conv2d(128, 128, kernel_size=(3, 3), stride=(1, 1), padding=(1, 1), groups=128, bias=False)
          (bn_depth): BatchNorm2d(128, eps=1e-05, momentum=0.1, affine=True, track_running_stats=True)
          (pointwise): Conv2d(128, 128, kernel_size=(1, 1), stride=(1, 1), bias=False)
          (bn_point): BatchNorm2d(128, eps=1e-05, momentum=0.1, affine=True, track_running_stats=True)
        )
      )
      (sep_conv3): SeparableConv2d(
        (block): Sequential(
          (relu): ReLU()
          (depthwise): Conv2d(128, 128, kernel_size=(3, 3), stride=(2, 2), padding=(1, 1), groups=128, bias=False)
          (bn_depth): BatchNorm2d(128, eps=1e-05, momentum=0.1, affine=True, track_running_stats=True)
          (pointwise): Conv2d(128, 128, kernel_size=(1, 1), stride=(1, 1), bias=False)
          (bn_point): BatchNorm2d(128, eps=1e-05, momentum=0.1, affine=True, track_running_stats=True)
        )
      )
    )
    (block2): XceptionBlock(
      (conv): Conv2d(128, 256, kernel_size=(1, 1), stride=(2, 2), bias=False)
      (bn): BatchNorm2d(256, eps=1e-05, momentum=0.1, affine=True, track_running_stats=True)
      (sep_conv1): SeparableConv2d(
        (block): Sequential(
          (relu): ReLU()
          (depthwise): Conv2d(128, 128, kernel_size=(3, 3), stride=(1, 1), padding=(1, 1), groups=128, bias=False)
          (bn_depth): BatchNorm2d(128, eps=1e-05, momentum=0.1, affine=True, track_running_stats=True)
          (pointwise): Conv2d(128, 256, kernel_size=(1, 1), stride=(1, 1), bias=False)
          (bn_point): BatchNorm2d(256, eps=1e-05, momentum=0.1, affine=True, track_running_stats=True)
        )
      )
      (sep_conv2): SeparableConv2d(
        (block): Sequential(
          (relu): ReLU()
          (depthwise): Conv2d(256, 256, kernel_size=(3, 3), stride=(1, 1), padding=(1, 1), groups=256, bias=False)
          (bn_depth): BatchNorm2d(256, eps=1e-05, momentum=0.1, affine=True, track_running_stats=True)
          (pointwise): Conv2d(256, 256, kernel_size=(1, 1), stride=(1, 1), bias=False)
          (bn_point): BatchNorm2d(256, eps=1e-05, momentum=0.1, affine=True, track_running_stats=True)
        )
      )
      (sep_conv3): SeparableConv2d(
        (block): Sequential(
          (relu): ReLU()
          (depthwise): Conv2d(256, 256, kernel_size=(3, 3), stride=(2, 2), padding=(1, 1), groups=256, bias=False)
          (bn_depth): BatchNorm2d(256, eps=1e-05, momentum=0.1, affine=True, track_running_stats=True)
          (pointwise): Conv2d(256, 256, kernel_size=(1, 1), stride=(1, 1), bias=False)
          (bn_point): BatchNorm2d(256, eps=1e-05, momentum=0.1, affine=True, track_running_stats=True)
        )
      )
    )
    (block3): XceptionBlock(
      (conv): Conv2d(256, 728, kernel_size=(1, 1), stride=(2, 2), bias=False)
      (bn): BatchNorm2d(728, eps=1e-05, momentum=0.1, affine=True, track_running_stats=True)
      (sep_conv1): SeparableConv2d(
        (block): Sequential(
          (relu): ReLU()
          (depthwise): Conv2d(256, 256, kernel_size=(3, 3), stride=(1, 1), padding=(1, 1), groups=256, bias=False)
          (bn_depth): BatchNorm2d(256, eps=1e-05, momentum=0.1, affine=True, track_running_stats=True)
          (pointwise): Conv2d(256, 728, kernel_size=(1, 1), stride=(1, 1), bias=False)
          (bn_point): BatchNorm2d(728, eps=1e-05, momentum=0.1, affine=True, track_running_stats=True)
        )
      )
      (sep_conv2): SeparableConv2d(
        (block): Sequential(
          (relu): ReLU()
          (depthwise): Conv2d(728, 728, kernel_size=(3, 3), stride=(1, 1), padding=(1, 1), groups=728, bias=False)
          (bn_depth): BatchNorm2d(728, eps=1e-05, momentum=0.1, affine=True, track_running_stats=True)
          (pointwise): Conv2d(728, 728, kernel_size=(1, 1), stride=(1, 1), bias=False)
          (bn_point): BatchNorm2d(728, eps=1e-05, momentum=0.1, affine=True, track_running_stats=True)
        )
      )
      (sep_conv3): SeparableConv2d(
        (block): Sequential(
          (relu): ReLU()
          (depthwise): Conv2d(728, 728, kernel_size=(3, 3), stride=(2, 2), padding=(1, 1), groups=728, bias=False)
          (bn_depth): BatchNorm2d(728, eps=1e-05, momentum=0.1, affine=True, track_running_stats=True)
          (pointwise): Conv2d(728, 728, kernel_size=(1, 1), stride=(1, 1), bias=False)
          (bn_point): BatchNorm2d(728, eps=1e-05, momentum=0.1, affine=True, track_running_stats=True)
        )
      )
    )
    (block4): XceptionBlock(
      (sep_conv1): SeparableConv2d(
        (block): Sequential(
          (relu): ReLU()
          (depthwise): Conv2d(728, 728, kernel_size=(3, 3), stride=(1, 1), padding=(1, 1), groups=728, bias=False)
          (bn_depth): BatchNorm2d(728, eps=1e-05, momentum=0.1, affine=True, track_running_stats=True)
          (pointwise): Conv2d(728, 728, kernel_size=(1, 1), stride=(1, 1), bias=False)
          (bn_point): BatchNorm2d(728, eps=1e-05, momentum=0.1, affine=True, track_running_stats=True)
        )
      )
      (sep_conv2): SeparableConv2d(
        (block): Sequential(
          (relu): ReLU()
          (depthwise): Conv2d(728, 728, kernel_size=(3, 3), stride=(1, 1), padding=(1, 1), groups=728, bias=False)
          (bn_depth): BatchNorm2d(728, eps=1e-05, momentum=0.1, affine=True, track_running_stats=True)
          (pointwise): Conv2d(728, 728, kernel_size=(1, 1), stride=(1, 1), bias=False)
          (bn_point): BatchNorm2d(728, eps=1e-05, momentum=0.1, affine=True, track_running_stats=True)
        )
      )
      (sep_conv3): SeparableConv2d(
        (block): Sequential(
          (relu): ReLU()
          (depthwise): Conv2d(728, 728, kernel_size=(3, 3), stride=(1, 1), padding=(1, 1), groups=728, bias=False)
          (bn_depth): BatchNorm2d(728, eps=1e-05, momentum=0.1, affine=True, track_running_stats=True)
          (pointwise): Conv2d(728, 728, kernel_size=(1, 1), stride=(1, 1), bias=False)
          (bn_point): BatchNorm2d(728, eps=1e-05, momentum=0.1, affine=True, track_running_stats=True)
        )
      )
    )
    (block5): XceptionBlock(
      (sep_conv1): SeparableConv2d(
        (block): Sequential(
          (relu): ReLU()
          (depthwise): Conv2d(728, 728, kernel_size=(3, 3), stride=(1, 1), padding=(1, 1), groups=728, bias=False)
          (bn_depth): BatchNorm2d(728, eps=1e-05, momentum=0.1, affine=True, track_running_stats=True)
          (pointwise): Conv2d(728, 728, kernel_size=(1, 1), stride=(1, 1), bias=False)
          (bn_point): BatchNorm2d(728, eps=1e-05, momentum=0.1, affine=True, track_running_stats=True)
        )
      )
      (sep_conv2): SeparableConv2d(
        (block): Sequential(
          (relu): ReLU()
          (depthwise): Conv2d(728, 728, kernel_size=(3, 3), stride=(1, 1), padding=(1, 1), groups=728, bias=False)
          (bn_depth): BatchNorm2d(728, eps=1e-05, momentum=0.1, affine=True, track_running_stats=True)
          (pointwise): Conv2d(728, 728, kernel_size=(1, 1), stride=(1, 1), bias=False)
          (bn_point): BatchNorm2d(728, eps=1e-05, momentum=0.1, affine=True, track_running_stats=True)
        )
      )
      (sep_conv3): SeparableConv2d(
        (block): Sequential(
          (relu): ReLU()
          (depthwise): Conv2d(728, 728, kernel_size=(3, 3), stride=(1, 1), padding=(1, 1), groups=728, bias=False)
          (bn_depth): BatchNorm2d(728, eps=1e-05, momentum=0.1, affine=True, track_running_stats=True)
          (pointwise): Conv2d(728, 728, kernel_size=(1, 1), stride=(1, 1), bias=False)
          (bn_point): BatchNorm2d(728, eps=1e-05, momentum=0.1, affine=True, track_running_stats=True)
        )
      )
    )
    (block6): XceptionBlock(
      (sep_conv1): SeparableConv2d(
        (block): Sequential(
          (relu): ReLU()
          (depthwise): Conv2d(728, 728, kernel_size=(3, 3), stride=(1, 1), padding=(1, 1), groups=728, bias=False)
          (bn_depth): BatchNorm2d(728, eps=1e-05, momentum=0.1, affine=True, track_running_stats=True)
          (pointwise): Conv2d(728, 728, kernel_size=(1, 1), stride=(1, 1), bias=False)
          (bn_point): BatchNorm2d(728, eps=1e-05, momentum=0.1, affine=True, track_running_stats=True)
        )
      )
      (sep_conv2): SeparableConv2d(
        (block): Sequential(
          (relu): ReLU()
          (depthwise): Conv2d(728, 728, kernel_size=(3, 3), stride=(1, 1), padding=(1, 1), groups=728, bias=False)
          (bn_depth): BatchNorm2d(728, eps=1e-05, momentum=0.1, affine=True, track_running_stats=True)
          (pointwise): Conv2d(728, 728, kernel_size=(1, 1), stride=(1, 1), bias=False)
          (bn_point): BatchNorm2d(728, eps=1e-05, momentum=0.1, affine=True, track_running_stats=True)
        )
      )
      (sep_conv3): SeparableConv2d(
        (block): Sequential(
          (relu): ReLU()
          (depthwise): Conv2d(728, 728, kernel_size=(3, 3), stride=(1, 1), padding=(1, 1), groups=728, bias=False)
          (bn_depth): BatchNorm2d(728, eps=1e-05, momentum=0.1, affine=True, track_running_stats=True)
          (pointwise): Conv2d(728, 728, kernel_size=(1, 1), stride=(1, 1), bias=False)
          (bn_point): BatchNorm2d(728, eps=1e-05, momentum=0.1, affine=True, track_running_stats=True)
        )
      )
    )
    (block7): XceptionBlock(
      (sep_conv1): SeparableConv2d(
        (block): Sequential(
          (relu): ReLU()
          (depthwise): Conv2d(728, 728, kernel_size=(3, 3), stride=(1, 1), padding=(1, 1), groups=728, bias=False)
          (bn_depth): BatchNorm2d(728, eps=1e-05, momentum=0.1, affine=True, track_running_stats=True)
          (pointwise): Conv2d(728, 728, kernel_size=(1, 1), stride=(1, 1), bias=False)
          (bn_point): BatchNorm2d(728, eps=1e-05, momentum=0.1, affine=True, track_running_stats=True)
        )
      )
      (sep_conv2): SeparableConv2d(
        (block): Sequential(
          (relu): ReLU()
          (depthwise): Conv2d(728, 728, kernel_size=(3, 3), stride=(1, 1), padding=(1, 1), groups=728, bias=False)
          (bn_depth): BatchNorm2d(728, eps=1e-05, momentum=0.1, affine=True, track_running_stats=True)
          (pointwise): Conv2d(728, 728, kernel_size=(1, 1), stride=(1, 1), bias=False)
          (bn_point): BatchNorm2d(728, eps=1e-05, momentum=0.1, affine=True, track_running_stats=True)
        )
      )
      (sep_conv3): SeparableConv2d(
        (block): Sequential(
          (relu): ReLU()
          (depthwise): Conv2d(728, 728, kernel_size=(3, 3), stride=(1, 1), padding=(1, 1), groups=728, bias=False)
          (bn_depth): BatchNorm2d(728, eps=1e-05, momentum=0.1, affine=True, track_running_stats=True)
          (pointwise): Conv2d(728, 728, kernel_size=(1, 1), stride=(1, 1), bias=False)
          (bn_point): BatchNorm2d(728, eps=1e-05, momentum=0.1, affine=True, track_running_stats=True)
        )
      )
    )
    (block8): XceptionBlock(
      (sep_conv1): SeparableConv2d(
        (block): Sequential(
          (relu): ReLU()
          (depthwise): Conv2d(728, 728, kernel_size=(3, 3), stride=(1, 1), padding=(1, 1), groups=728, bias=False)
          (bn_depth): BatchNorm2d(728, eps=1e-05, momentum=0.1, affine=True, track_running_stats=True)
          (pointwise): Conv2d(728, 728, kernel_size=(1, 1), stride=(1, 1), bias=False)
          (bn_point): BatchNorm2d(728, eps=1e-05, momentum=0.1, affine=True, track_running_stats=True)
        )
      )
      (sep_conv2): SeparableConv2d(
        (block): Sequential(
          (relu): ReLU()
          (depthwise): Conv2d(728, 728, kernel_size=(3, 3), stride=(1, 1), padding=(1, 1), groups=728, bias=False)
          (bn_depth): BatchNorm2d(728, eps=1e-05, momentum=0.1, affine=True, track_running_stats=True)
          (pointwise): Conv2d(728, 728, kernel_size=(1, 1), stride=(1, 1), bias=False)
          (bn_point): BatchNorm2d(728, eps=1e-05, momentum=0.1, affine=True, track_running_stats=True)
        )
      )
      (sep_conv3): SeparableConv2d(
        (block): Sequential(
          (relu): ReLU()
          (depthwise): Conv2d(728, 728, kernel_size=(3, 3), stride=(1, 1), padding=(1, 1), groups=728, bias=False)
          (bn_depth): BatchNorm2d(728, eps=1e-05, momentum=0.1, affine=True, track_running_stats=True)
          (pointwise): Conv2d(728, 728, kernel_size=(1, 1), stride=(1, 1), bias=False)
          (bn_point): BatchNorm2d(728, eps=1e-05, momentum=0.1, affine=True, track_running_stats=True)
        )
      )
    )
    (block9): XceptionBlock(
      (sep_conv1): SeparableConv2d(
        (block): Sequential(
          (relu): ReLU()
          (depthwise): Conv2d(728, 728, kernel_size=(3, 3), stride=(1, 1), padding=(1, 1), groups=728, bias=False)
          (bn_depth): BatchNorm2d(728, eps=1e-05, momentum=0.1, affine=True, track_running_stats=True)
          (pointwise): Conv2d(728, 728, kernel_size=(1, 1), stride=(1, 1), bias=False)
          (bn_point): BatchNorm2d(728, eps=1e-05, momentum=0.1, affine=True, track_running_stats=True)
        )
      )
      (sep_conv2): SeparableConv2d(
        (block): Sequential(
          (relu): ReLU()
          (depthwise): Conv2d(728, 728, kernel_size=(3, 3), stride=(1, 1), padding=(1, 1), groups=728, bias=False)
          (bn_depth): BatchNorm2d(728, eps=1e-05, momentum=0.1, affine=True, track_running_stats=True)
          (pointwise): Conv2d(728, 728, kernel_size=(1, 1), stride=(1, 1), bias=False)
          (bn_point): BatchNorm2d(728, eps=1e-05, momentum=0.1, affine=True, track_running_stats=True)
        )
      )
      (sep_conv3): SeparableConv2d(
        (block): Sequential(
          (relu): ReLU()
          (depthwise): Conv2d(728, 728, kernel_size=(3, 3), stride=(1, 1), padding=(1, 1), groups=728, bias=False)
          (bn_depth): BatchNorm2d(728, eps=1e-05, momentum=0.1, affine=True, track_running_stats=True)
          (pointwise): Conv2d(728, 728, kernel_size=(1, 1), stride=(1, 1), bias=False)
          (bn_point): BatchNorm2d(728, eps=1e-05, momentum=0.1, affine=True, track_running_stats=True)
        )
      )
    )
    (block10): XceptionBlock(
      (sep_conv1): SeparableConv2d(
        (block): Sequential(
          (relu): ReLU()
          (depthwise): Conv2d(728, 728, kernel_size=(3, 3), stride=(1, 1), padding=(1, 1), groups=728, bias=False)
          (bn_depth): BatchNorm2d(728, eps=1e-05, momentum=0.1, affine=True, track_running_stats=True)
          (pointwise): Conv2d(728, 728, kernel_size=(1, 1), stride=(1, 1), bias=False)
          (bn_point): BatchNorm2d(728, eps=1e-05, momentum=0.1, affine=True, track_running_stats=True)
        )
      )
      (sep_conv2): SeparableConv2d(
        (block): Sequential(
          (relu): ReLU()
          (depthwise): Conv2d(728, 728, kernel_size=(3, 3), stride=(1, 1), padding=(1, 1), groups=728, bias=False)
          (bn_depth): BatchNorm2d(728, eps=1e-05, momentum=0.1, affine=True, track_running_stats=True)
          (pointwise): Conv2d(728, 728, kernel_size=(1, 1), stride=(1, 1), bias=False)
          (bn_point): BatchNorm2d(728, eps=1e-05, momentum=0.1, affine=True, track_running_stats=True)
        )
      )
      (sep_conv3): SeparableConv2d(
        (block): Sequential(
          (relu): ReLU()
          (depthwise): Conv2d(728, 728, kernel_size=(3, 3), stride=(1, 1), padding=(1, 1), groups=728, bias=False)
          (bn_depth): BatchNorm2d(728, eps=1e-05, momentum=0.1, affine=True, track_running_stats=True)
          (pointwise): Conv2d(728, 728, kernel_size=(1, 1), stride=(1, 1), bias=False)
          (bn_point): BatchNorm2d(728, eps=1e-05, momentum=0.1, affine=True, track_running_stats=True)
        )
      )
    )
    (block11): XceptionBlock(
      (sep_conv1): SeparableConv2d(
        (block): Sequential(
          (relu): ReLU()
          (depthwise): Conv2d(728, 728, kernel_size=(3, 3), stride=(1, 1), padding=(1, 1), groups=728, bias=False)
          (bn_depth): BatchNorm2d(728, eps=1e-05, momentum=0.1, affine=True, track_running_stats=True)
          (pointwise): Conv2d(728, 728, kernel_size=(1, 1), stride=(1, 1), bias=False)
          (bn_point): BatchNorm2d(728, eps=1e-05, momentum=0.1, affine=True, track_running_stats=True)
        )
      )
      (sep_conv2): SeparableConv2d(
        (block): Sequential(
          (relu): ReLU()
          (depthwise): Conv2d(728, 728, kernel_size=(3, 3), stride=(1, 1), padding=(1, 1), groups=728, bias=False)
          (bn_depth): BatchNorm2d(728, eps=1e-05, momentum=0.1, affine=True, track_running_stats=True)
          (pointwise): Conv2d(728, 728, kernel_size=(1, 1), stride=(1, 1), bias=False)
          (bn_point): BatchNorm2d(728, eps=1e-05, momentum=0.1, affine=True, track_running_stats=True)
        )
      )
      (sep_conv3): SeparableConv2d(
        (block): Sequential(
          (relu): ReLU()
          (depthwise): Conv2d(728, 728, kernel_size=(3, 3), stride=(1, 1), padding=(1, 1), groups=728, bias=False)
          (bn_depth): BatchNorm2d(728, eps=1e-05, momentum=0.1, affine=True, track_running_stats=True)
          (pointwise): Conv2d(728, 728, kernel_size=(1, 1), stride=(1, 1), bias=False)
          (bn_point): BatchNorm2d(728, eps=1e-05, momentum=0.1, affine=True, track_running_stats=True)
        )
      )
    )
    (block12): XceptionBlock(
      (sep_conv1): SeparableConv2d(
        (block): Sequential(
          (relu): ReLU()
          (depthwise): Conv2d(728, 728, kernel_size=(3, 3), stride=(1, 1), padding=(1, 1), groups=728, bias=False)
          (bn_depth): BatchNorm2d(728, eps=1e-05, momentum=0.1, affine=True, track_running_stats=True)
          (pointwise): Conv2d(728, 728, kernel_size=(1, 1), stride=(1, 1), bias=False)
          (bn_point): BatchNorm2d(728, eps=1e-05, momentum=0.1, affine=True, track_running_stats=True)
        )
      )
      (sep_conv2): SeparableConv2d(
        (block): Sequential(
          (relu): ReLU()
          (depthwise): Conv2d(728, 728, kernel_size=(3, 3), stride=(1, 1), padding=(1, 1), groups=728, bias=False)
          (bn_depth): BatchNorm2d(728, eps=1e-05, momentum=0.1, affine=True, track_running_stats=True)
          (pointwise): Conv2d(728, 728, kernel_size=(1, 1), stride=(1, 1), bias=False)
          (bn_point): BatchNorm2d(728, eps=1e-05, momentum=0.1, affine=True, track_running_stats=True)
        )
      )
      (sep_conv3): SeparableConv2d(
        (block): Sequential(
          (relu): ReLU()
          (depthwise): Conv2d(728, 728, kernel_size=(3, 3), stride=(1, 1), padding=(1, 1), groups=728, bias=False)
          (bn_depth): BatchNorm2d(728, eps=1e-05, momentum=0.1, affine=True, track_running_stats=True)
          (pointwise): Conv2d(728, 728, kernel_size=(1, 1), stride=(1, 1), bias=False)
          (bn_point): BatchNorm2d(728, eps=1e-05, momentum=0.1, affine=True, track_running_stats=True)
        )
      )
    )
    (block13): XceptionBlock(
      (sep_conv1): SeparableConv2d(
        (block): Sequential(
          (relu): ReLU()
          (depthwise): Conv2d(728, 728, kernel_size=(3, 3), stride=(1, 1), padding=(1, 1), groups=728, bias=False)
          (bn_depth): BatchNorm2d(728, eps=1e-05, momentum=0.1, affine=True, track_running_stats=True)
          (pointwise): Conv2d(728, 728, kernel_size=(1, 1), stride=(1, 1), bias=False)
          (bn_point): BatchNorm2d(728, eps=1e-05, momentum=0.1, affine=True, track_running_stats=True)
        )
      )
      (sep_conv2): SeparableConv2d(
        (block): Sequential(
          (relu): ReLU()
          (depthwise): Conv2d(728, 728, kernel_size=(3, 3), stride=(1, 1), padding=(1, 1), groups=728, bias=False)
          (bn_depth): BatchNorm2d(728, eps=1e-05, momentum=0.1, affine=True, track_running_stats=True)
          (pointwise): Conv2d(728, 728, kernel_size=(1, 1), stride=(1, 1), bias=False)
          (bn_point): BatchNorm2d(728, eps=1e-05, momentum=0.1, affine=True, track_running_stats=True)
        )
      )
      (sep_conv3): SeparableConv2d(
        (block): Sequential(
          (relu): ReLU()
          (depthwise): Conv2d(728, 728, kernel_size=(3, 3), stride=(1, 1), padding=(1, 1), groups=728, bias=False)
          (bn_depth): BatchNorm2d(728, eps=1e-05, momentum=0.1, affine=True, track_running_stats=True)
          (pointwise): Conv2d(728, 728, kernel_size=(1, 1), stride=(1, 1), bias=False)
          (bn_point): BatchNorm2d(728, eps=1e-05, momentum=0.1, affine=True, track_running_stats=True)
        )
      )
    )
    (block14): XceptionBlock(
      (sep_conv1): SeparableConv2d(
        (block): Sequential(
          (relu): ReLU()
          (depthwise): Conv2d(728, 728, kernel_size=(3, 3), stride=(1, 1), padding=(1, 1), groups=728, bias=False)
          (bn_depth): BatchNorm2d(728, eps=1e-05, momentum=0.1, affine=True, track_running_stats=True)
          (pointwise): Conv2d(728, 728, kernel_size=(1, 1), stride=(1, 1), bias=False)
          (bn_point): BatchNorm2d(728, eps=1e-05, momentum=0.1, affine=True, track_running_stats=True)
        )
      )
      (sep_conv2): SeparableConv2d(
        (block): Sequential(
          (relu): ReLU()
          (depthwise): Conv2d(728, 728, kernel_size=(3, 3), stride=(1, 1), padding=(1, 1), groups=728, bias=False)
          (bn_depth): BatchNorm2d(728, eps=1e-05, momentum=0.1, affine=True, track_running_stats=True)
          (pointwise): Conv2d(728, 728, kernel_size=(1, 1), stride=(1, 1), bias=False)
          (bn_point): BatchNorm2d(728, eps=1e-05, momentum=0.1, affine=True, track_running_stats=True)
        )
      )
      (sep_conv3): SeparableConv2d(
        (block): Sequential(
          (relu): ReLU()
          (depthwise): Conv2d(728, 728, kernel_size=(3, 3), stride=(1, 1), padding=(1, 1), groups=728, bias=False)
          (bn_depth): BatchNorm2d(728, eps=1e-05, momentum=0.1, affine=True, track_running_stats=True)
          (pointwise): Conv2d(728, 728, kernel_size=(1, 1), stride=(1, 1), bias=False)
          (bn_point): BatchNorm2d(728, eps=1e-05, momentum=0.1, affine=True, track_running_stats=True)
        )
      )
    )
    (block15): XceptionBlock(
      (sep_conv1): SeparableConv2d(
        (block): Sequential(
          (relu): ReLU()
          (depthwise): Conv2d(728, 728, kernel_size=(3, 3), stride=(1, 1), padding=(1, 1), groups=728, bias=False)
          (bn_depth): BatchNorm2d(728, eps=1e-05, momentum=0.1, affine=True, track_running_stats=True)
          (pointwise): Conv2d(728, 728, kernel_size=(1, 1), stride=(1, 1), bias=False)
          (bn_point): BatchNorm2d(728, eps=1e-05, momentum=0.1, affine=True, track_running_stats=True)
        )
      )
      (sep_conv2): SeparableConv2d(
        (block): Sequential(
          (relu): ReLU()
          (depthwise): Conv2d(728, 728, kernel_size=(3, 3), stride=(1, 1), padding=(1, 1), groups=728, bias=False)
          (bn_depth): BatchNorm2d(728, eps=1e-05, momentum=0.1, affine=True, track_running_stats=True)
          (pointwise): Conv2d(728, 728, kernel_size=(1, 1), stride=(1, 1), bias=False)
          (bn_point): BatchNorm2d(728, eps=1e-05, momentum=0.1, affine=True, track_running_stats=True)
        )
      )
      (sep_conv3): SeparableConv2d(
        (block): Sequential(
          (relu): ReLU()
          (depthwise): Conv2d(728, 728, kernel_size=(3, 3), stride=(1, 1), padding=(1, 1), groups=728, bias=False)
          (bn_depth): BatchNorm2d(728, eps=1e-05, momentum=0.1, affine=True, track_running_stats=True)
          (pointwise): Conv2d(728, 728, kernel_size=(1, 1), stride=(1, 1), bias=False)
          (bn_point): BatchNorm2d(728, eps=1e-05, momentum=0.1, affine=True, track_running_stats=True)
        )
      )
    )
    (block16): XceptionBlock(
      (sep_conv1): SeparableConv2d(
        (block): Sequential(
          (relu): ReLU()
          (depthwise): Conv2d(728, 728, kernel_size=(3, 3), stride=(1, 1), padding=(1, 1), groups=728, bias=False)
          (bn_depth): BatchNorm2d(728, eps=1e-05, momentum=0.1, affine=True, track_running_stats=True)
          (pointwise): Conv2d(728, 728, kernel_size=(1, 1), stride=(1, 1), bias=False)
          (bn_point): BatchNorm2d(728, eps=1e-05, momentum=0.1, affine=True, track_running_stats=True)
        )
      )
      (sep_conv2): SeparableConv2d(
        (block): Sequential(
          (relu): ReLU()
          (depthwise): Conv2d(728, 728, kernel_size=(3, 3), stride=(1, 1), padding=(1, 1), groups=728, bias=False)
          (bn_depth): BatchNorm2d(728, eps=1e-05, momentum=0.1, affine=True, track_running_stats=True)
          (pointwise): Conv2d(728, 728, kernel_size=(1, 1), stride=(1, 1), bias=False)
          (bn_point): BatchNorm2d(728, eps=1e-05, momentum=0.1, affine=True, track_running_stats=True)
        )
      )
      (sep_conv3): SeparableConv2d(
        (block): Sequential(
          (relu): ReLU()
          (depthwise): Conv2d(728, 728, kernel_size=(3, 3), stride=(1, 1), padding=(1, 1), groups=728, bias=False)
          (bn_depth): BatchNorm2d(728, eps=1e-05, momentum=0.1, affine=True, track_running_stats=True)
          (pointwise): Conv2d(728, 728, kernel_size=(1, 1), stride=(1, 1), bias=False)
          (bn_point): BatchNorm2d(728, eps=1e-05, momentum=0.1, affine=True, track_running_stats=True)
        )
      )
    )
    (block17): XceptionBlock(
      (sep_conv1): SeparableConv2d(
        (block): Sequential(
          (relu): ReLU()
          (depthwise): Conv2d(728, 728, kernel_size=(3, 3), stride=(1, 1), padding=(1, 1), groups=728, bias=False)
          (bn_depth): BatchNorm2d(728, eps=1e-05, momentum=0.1, affine=True, track_running_stats=True)
          (pointwise): Conv2d(728, 728, kernel_size=(1, 1), stride=(1, 1), bias=False)
          (bn_point): BatchNorm2d(728, eps=1e-05, momentum=0.1, affine=True, track_running_stats=True)
        )
      )
      (sep_conv2): SeparableConv2d(
        (block): Sequential(
          (relu): ReLU()
          (depthwise): Conv2d(728, 728, kernel_size=(3, 3), stride=(1, 1), padding=(1, 1), groups=728, bias=False)
          (bn_depth): BatchNorm2d(728, eps=1e-05, momentum=0.1, affine=True, track_running_stats=True)
          (pointwise): Conv2d(728, 728, kernel_size=(1, 1), stride=(1, 1), bias=False)
          (bn_point): BatchNorm2d(728, eps=1e-05, momentum=0.1, affine=True, track_running_stats=True)
        )
      )
      (sep_conv3): SeparableConv2d(
        (block): Sequential(
          (relu): ReLU()
          (depthwise): Conv2d(728, 728, kernel_size=(3, 3), stride=(1, 1), padding=(1, 1), groups=728, bias=False)
          (bn_depth): BatchNorm2d(728, eps=1e-05, momentum=0.1, affine=True, track_running_stats=True)
          (pointwise): Conv2d(728, 728, kernel_size=(1, 1), stride=(1, 1), bias=False)
          (bn_point): BatchNorm2d(728, eps=1e-05, momentum=0.1, affine=True, track_running_stats=True)
        )
      )
    )
    (block18): XceptionBlock(
      (sep_conv1): SeparableConv2d(
        (block): Sequential(
          (relu): ReLU()
          (depthwise): Conv2d(728, 728, kernel_size=(3, 3), stride=(1, 1), padding=(1, 1), groups=728, bias=False)
          (bn_depth): BatchNorm2d(728, eps=1e-05, momentum=0.1, affine=True, track_running_stats=True)
          (pointwise): Conv2d(728, 728, kernel_size=(1, 1), stride=(1, 1), bias=False)
          (bn_point): BatchNorm2d(728, eps=1e-05, momentum=0.1, affine=True, track_running_stats=True)
        )
      )
      (sep_conv2): SeparableConv2d(
        (block): Sequential(
          (relu): ReLU()
          (depthwise): Conv2d(728, 728, kernel_size=(3, 3), stride=(1, 1), padding=(1, 1), groups=728, bias=False)
          (bn_depth): BatchNorm2d(728, eps=1e-05, momentum=0.1, affine=True, track_running_stats=True)
          (pointwise): Conv2d(728, 728, kernel_size=(1, 1), stride=(1, 1), bias=False)
          (bn_point): BatchNorm2d(728, eps=1e-05, momentum=0.1, affine=True, track_running_stats=True)
        )
      )
      (sep_conv3): SeparableConv2d(
        (block): Sequential(
          (relu): ReLU()
          (depthwise): Conv2d(728, 728, kernel_size=(3, 3), stride=(1, 1), padding=(1, 1), groups=728, bias=False)
          (bn_depth): BatchNorm2d(728, eps=1e-05, momentum=0.1, affine=True, track_running_stats=True)
          (pointwise): Conv2d(728, 728, kernel_size=(1, 1), stride=(1, 1), bias=False)
          (bn_point): BatchNorm2d(728, eps=1e-05, momentum=0.1, affine=True, track_running_stats=True)
        )
      )
    )
    (block19): XceptionBlock(
      (sep_conv1): SeparableConv2d(
        (block): Sequential(
          (relu): ReLU()
          (depthwise): Conv2d(728, 728, kernel_size=(3, 3), stride=(1, 1), padding=(1, 1), groups=728, bias=False)
          (bn_depth): BatchNorm2d(728, eps=1e-05, momentum=0.1, affine=True, track_running_stats=True)
          (pointwise): Conv2d(728, 728, kernel_size=(1, 1), stride=(1, 1), bias=False)
          (bn_point): BatchNorm2d(728, eps=1e-05, momentum=0.1, affine=True, track_running_stats=True)
        )
      )
      (sep_conv2): SeparableConv2d(
        (block): Sequential(
          (relu): ReLU()
          (depthwise): Conv2d(728, 728, kernel_size=(3, 3), stride=(1, 1), padding=(1, 1), groups=728, bias=False)
          (bn_depth): BatchNorm2d(728, eps=1e-05, momentum=0.1, affine=True, track_running_stats=True)
          (pointwise): Conv2d(728, 728, kernel_size=(1, 1), stride=(1, 1), bias=False)
          (bn_point): BatchNorm2d(728, eps=1e-05, momentum=0.1, affine=True, track_running_stats=True)
        )
      )
      (sep_conv3): SeparableConv2d(
        (block): Sequential(
          (relu): ReLU()
          (depthwise): Conv2d(728, 728, kernel_size=(3, 3), stride=(1, 1), padding=(1, 1), groups=728, bias=False)
          (bn_depth): BatchNorm2d(728, eps=1e-05, momentum=0.1, affine=True, track_running_stats=True)
          (pointwise): Conv2d(728, 728, kernel_size=(1, 1), stride=(1, 1), bias=False)
          (bn_point): BatchNorm2d(728, eps=1e-05, momentum=0.1, affine=True, track_running_stats=True)
        )
      )
    )
    (block20): XceptionBlock(
      (conv): Conv2d(728, 1024, kernel_size=(1, 1), stride=(1, 1), bias=False)
      (bn): BatchNorm2d(1024, eps=1e-05, momentum=0.1, affine=True, track_running_stats=True)
      (sep_conv1): SeparableConv2d(
        (block): Sequential(
          (relu): ReLU()
          (depthwise): Conv2d(728, 728, kernel_size=(3, 3), stride=(1, 1), padding=(1, 1), groups=728, bias=False)
          (bn_depth): BatchNorm2d(728, eps=1e-05, momentum=0.1, affine=True, track_running_stats=True)
          (pointwise): Conv2d(728, 728, kernel_size=(1, 1), stride=(1, 1), bias=False)
          (bn_point): BatchNorm2d(728, eps=1e-05, momentum=0.1, affine=True, track_running_stats=True)
        )
      )
      (sep_conv2): SeparableConv2d(
        (block): Sequential(
          (relu): ReLU()
          (depthwise): Conv2d(728, 728, kernel_size=(3, 3), stride=(1, 1), padding=(1, 1), groups=728, bias=False)
          (bn_depth): BatchNorm2d(728, eps=1e-05, momentum=0.1, affine=True, track_running_stats=True)
          (pointwise): Conv2d(728, 1024, kernel_size=(1, 1), stride=(1, 1), bias=False)
          (bn_point): BatchNorm2d(1024, eps=1e-05, momentum=0.1, affine=True, track_running_stats=True)
        )
      )
      (sep_conv3): SeparableConv2d(
        (block): Sequential(
          (relu): ReLU()
          (depthwise): Conv2d(1024, 1024, kernel_size=(3, 3), stride=(1, 1), padding=(1, 1), groups=1024, bias=False)
          (bn_depth): BatchNorm2d(1024, eps=1e-05, momentum=0.1, affine=True, track_running_stats=True)
          (pointwise): Conv2d(1024, 1024, kernel_size=(1, 1), stride=(1, 1), bias=False)
          (bn_point): BatchNorm2d(1024, eps=1e-05, momentum=0.1, affine=True, track_running_stats=True)
        )
      )
    )
    (block21): XceptionBlock(
      (sep_conv1): SeparableConv2d(
        (block): Sequential(
          (depthwise): Conv2d(1024, 1024, kernel_size=(3, 3), stride=(1, 1), padding=(2, 2), dilation=(2, 2), groups=1024, bias=False)
          (bn_depth): BatchNorm2d(1024, eps=1e-05, momentum=0.1, affine=True, track_running_stats=True)
          (relu1): ReLU(inplace=True)
          (pointwise): Conv2d(1024, 1536, kernel_size=(1, 1), stride=(1, 1), bias=False)
          (bn_point): BatchNorm2d(1536, eps=1e-05, momentum=0.1, affine=True, track_running_stats=True)
          (relu2): ReLU(inplace=True)
        )
      )
      (sep_conv2): SeparableConv2d(
        (block): Sequential(
          (depthwise): Conv2d(1536, 1536, kernel_size=(3, 3), stride=(1, 1), padding=(2, 2), dilation=(2, 2), groups=1536, bias=False)
          (bn_depth): BatchNorm2d(1536, eps=1e-05, momentum=0.1, affine=True, track_running_stats=True)
          (relu1): ReLU(inplace=True)
          (pointwise): Conv2d(1536, 1536, kernel_size=(1, 1), stride=(1, 1), bias=False)
          (bn_point): BatchNorm2d(1536, eps=1e-05, momentum=0.1, affine=True, track_running_stats=True)
          (relu2): ReLU(inplace=True)
        )
      )
      (sep_conv3): SeparableConv2d(
        (block): Sequential(
          (depthwise): Conv2d(1536, 1536, kernel_size=(3, 3), stride=(1, 1), padding=(2, 2), dilation=(2, 2), groups=1536, bias=False)
          (bn_depth): BatchNorm2d(1536, eps=1e-05, momentum=0.1, affine=True, track_running_stats=True)
          (relu1): ReLU(inplace=True)
          (pointwise): Conv2d(1536, 2048, kernel_size=(1, 1), stride=(1, 1), bias=False)
          (bn_point): BatchNorm2d(2048, eps=1e-05, momentum=0.1, affine=True, track_running_stats=True)
          (relu2): ReLU(inplace=True)
        )
      )
    )
  )
  (sem_seg_head): PanopticDeepLabSemSegHead(
    (decoder): ModuleDict(
      (res2): ModuleDict(
        (project_conv): Conv2d(
          256, 32, kernel_size=(1, 1), stride=(1, 1), bias=False
          (norm): BatchNorm2d(32, eps=1e-05, momentum=0.1, affine=True, track_running_stats=True)
        )
        (fuse_conv): DepthwiseSeparableConv2d(
          (depthwise): Conv2d(
            288, 288, kernel_size=(5, 5), stride=(1, 1), padding=(2, 2), groups=288, bias=False
            (norm): BatchNorm2d(288, eps=1e-05, momentum=0.1, affine=True, track_running_stats=True)
          )
          (pointwise): Conv2d(
            288, 256, kernel_size=(1, 1), stride=(1, 1), bias=False
            (norm): BatchNorm2d(256, eps=1e-05, momentum=0.1, affine=True, track_running_stats=True)
          )
        )
      )
      (res3): ModuleDict(
        (project_conv): Conv2d(
          728, 64, kernel_size=(1, 1), stride=(1, 1), bias=False
          (norm): BatchNorm2d(64, eps=1e-05, momentum=0.1, affine=True, track_running_stats=True)
        )
        (fuse_conv): DepthwiseSeparableConv2d(
          (depthwise): Conv2d(
            320, 320, kernel_size=(5, 5), stride=(1, 1), padding=(2, 2), groups=320, bias=False
            (norm): BatchNorm2d(320, eps=1e-05, momentum=0.1, affine=True, track_running_stats=True)
          )
          (pointwise): Conv2d(
            320, 256, kernel_size=(1, 1), stride=(1, 1), bias=False
            (norm): BatchNorm2d(256, eps=1e-05, momentum=0.1, affine=True, track_running_stats=True)
          )
        )
      )
      (res5): ModuleDict(
        (project_conv): ASPP(
          (convs): ModuleList(
            (0): Conv2d(
              2048, 256, kernel_size=(1, 1), stride=(1, 1), bias=False
              (norm): BatchNorm2d(256, eps=1e-05, momentum=0.1, affine=True, track_running_stats=True)
            )
            (1): DepthwiseSeparableConv2d(
              (depthwise): Conv2d(
                2048, 2048, kernel_size=(3, 3), stride=(1, 1), padding=(3, 3), dilation=(3, 3), groups=2048, bias=False
                (norm): BatchNorm2d(2048, eps=1e-05, momentum=0.1, affine=True, track_running_stats=True)
              )
              (pointwise): Conv2d(
                2048, 256, kernel_size=(1, 1), stride=(1, 1), bias=False
                (norm): BatchNorm2d(256, eps=1e-05, momentum=0.1, affine=True, track_running_stats=True)
              )
            )
            (2): DepthwiseSeparableConv2d(
              (depthwise): Conv2d(
                2048, 2048, kernel_size=(3, 3), stride=(1, 1), padding=(6, 6), dilation=(6, 6), groups=2048, bias=False
                (norm): BatchNorm2d(2048, eps=1e-05, momentum=0.1, affine=True, track_running_stats=True)
              )
              (pointwise): Conv2d(
                2048, 256, kernel_size=(1, 1), stride=(1, 1), bias=False
                (norm): BatchNorm2d(256, eps=1e-05, momentum=0.1, affine=True, track_running_stats=True)
              )
            )
            (3): DepthwiseSeparableConv2d(
              (depthwise): Conv2d(
                2048, 2048, kernel_size=(3, 3), stride=(1, 1), padding=(9, 9), dilation=(9, 9), groups=2048, bias=False
                (norm): BatchNorm2d(2048, eps=1e-05, momentum=0.1, affine=True, track_running_stats=True)
              )
              (pointwise): Conv2d(
                2048, 256, kernel_size=(1, 1), stride=(1, 1), bias=False
                (norm): BatchNorm2d(256, eps=1e-05, momentum=0.1, affine=True, track_running_stats=True)
              )
            )
            (4): Sequential(
              (0): AdaptiveAvgPool2d(output_size=1)
              (1): Conv2d(2048, 256, kernel_size=(1, 1), stride=(1, 1))
            )
          )
          (project): Conv2d(
            1280, 256, kernel_size=(1, 1), stride=(1, 1), bias=False
            (norm): BatchNorm2d(256, eps=1e-05, momentum=0.1, affine=True, track_running_stats=True)
          )
        )
        (fuse_conv): None
      )
    )
    (head): DepthwiseSeparableConv2d(
      (depthwise): Conv2d(
        256, 256, kernel_size=(5, 5), stride=(1, 1), padding=(2, 2), groups=256, bias=False
        (norm): BatchNorm2d(256, eps=1e-05, momentum=0.1, affine=True, track_running_stats=True)
      )
      (pointwise): Conv2d(
        256, 256, kernel_size=(1, 1), stride=(1, 1), bias=False
        (norm): BatchNorm2d(256, eps=1e-05, momentum=0.1, affine=True, track_running_stats=True)
      )
    )
    (predictor): Conv2d(256, 19, kernel_size=(1, 1), stride=(1, 1))
    (loss): DeepLabCE(
      (criterion): CrossEntropyLoss()
    )
  )
  (ins_embed_head): PanopticDeepLabInsEmbedHead(
    (decoder): ModuleDict(
      (res2): ModuleDict(
        (project_conv): Conv2d(
          256, 32, kernel_size=(1, 1), stride=(1, 1), bias=False
          (norm): BatchNorm2d(32, eps=1e-05, momentum=0.1, affine=True, track_running_stats=True)
        )
        (fuse_conv): DepthwiseSeparableConv2d(
          (depthwise): Conv2d(
            160, 160, kernel_size=(5, 5), stride=(1, 1), padding=(2, 2), groups=160, bias=False
            (norm): BatchNorm2d(160, eps=1e-05, momentum=0.1, affine=True, track_running_stats=True)
          )
          (pointwise): Conv2d(
            160, 128, kernel_size=(1, 1), stride=(1, 1), bias=False
            (norm): BatchNorm2d(128, eps=1e-05, momentum=0.1, affine=True, track_running_stats=True)
          )
        )
      )
      (res3): ModuleDict(
        (project_conv): Conv2d(
          728, 64, kernel_size=(1, 1), stride=(1, 1), bias=False
          (norm): BatchNorm2d(64, eps=1e-05, momentum=0.1, affine=True, track_running_stats=True)
        )
        (fuse_conv): DepthwiseSeparableConv2d(
          (depthwise): Conv2d(
            320, 320, kernel_size=(5, 5), stride=(1, 1), padding=(2, 2), groups=320, bias=False
            (norm): BatchNorm2d(320, eps=1e-05, momentum=0.1, affine=True, track_running_stats=True)
          )
          (pointwise): Conv2d(
            320, 128, kernel_size=(1, 1), stride=(1, 1), bias=False
            (norm): BatchNorm2d(128, eps=1e-05, momentum=0.1, affine=True, track_running_stats=True)
          )
        )
      )
      (res5): ModuleDict(
        (project_conv): ASPP(
          (convs): ModuleList(
            (0): Conv2d(
              2048, 256, kernel_size=(1, 1), stride=(1, 1), bias=False
              (norm): BatchNorm2d(256, eps=1e-05, momentum=0.1, affine=True, track_running_stats=True)
            )
            (1): DepthwiseSeparableConv2d(
              (depthwise): Conv2d(
                2048, 2048, kernel_size=(3, 3), stride=(1, 1), padding=(3, 3), dilation=(3, 3), groups=2048, bias=False
                (norm): BatchNorm2d(2048, eps=1e-05, momentum=0.1, affine=True, track_running_stats=True)
              )
              (pointwise): Conv2d(
                2048, 256, kernel_size=(1, 1), stride=(1, 1), bias=False
                (norm): BatchNorm2d(256, eps=1e-05, momentum=0.1, affine=True, track_running_stats=True)
              )
            )
            (2): DepthwiseSeparableConv2d(
              (depthwise): Conv2d(
                2048, 2048, kernel_size=(3, 3), stride=(1, 1), padding=(6, 6), dilation=(6, 6), groups=2048, bias=False
                (norm): BatchNorm2d(2048, eps=1e-05, momentum=0.1, affine=True, track_running_stats=True)
              )
              (pointwise): Conv2d(
                2048, 256, kernel_size=(1, 1), stride=(1, 1), bias=False
                (norm): BatchNorm2d(256, eps=1e-05, momentum=0.1, affine=True, track_running_stats=True)
              )
            )
            (3): DepthwiseSeparableConv2d(
              (depthwise): Conv2d(
                2048, 2048, kernel_size=(3, 3), stride=(1, 1), padding=(9, 9), dilation=(9, 9), groups=2048, bias=False
                (norm): BatchNorm2d(2048, eps=1e-05, momentum=0.1, affine=True, track_running_stats=True)
              )
              (pointwise): Conv2d(
                2048, 256, kernel_size=(1, 1), stride=(1, 1), bias=False
                (norm): BatchNorm2d(256, eps=1e-05, momentum=0.1, affine=True, track_running_stats=True)
              )
            )
            (4): Sequential(
              (0): AdaptiveAvgPool2d(output_size=1)
              (1): Conv2d(2048, 256, kernel_size=(1, 1), stride=(1, 1))
            )
          )
          (project): Conv2d(
            1280, 256, kernel_size=(1, 1), stride=(1, 1), bias=False
            (norm): BatchNorm2d(256, eps=1e-05, momentum=0.1, affine=True, track_running_stats=True)
          )
        )
        (fuse_conv): None
      )
    )
    (center_head): Sequential(
      (0): Conv2d(
        128, 128, kernel_size=(3, 3), stride=(1, 1), padding=(1, 1), bias=False
        (norm): BatchNorm2d(128, eps=1e-05, momentum=0.1, affine=True, track_running_stats=True)
      )
      (1): Conv2d(
        128, 32, kernel_size=(3, 3), stride=(1, 1), padding=(1, 1), bias=False
        (norm): BatchNorm2d(32, eps=1e-05, momentum=0.1, affine=True, track_running_stats=True)
      )
    )
    (center_predictor): Conv2d(32, 1, kernel_size=(1, 1), stride=(1, 1))
    (offset_head): DepthwiseSeparableConv2d(
      (depthwise): Conv2d(
        128, 128, kernel_size=(5, 5), stride=(1, 1), padding=(2, 2), groups=128, bias=False
        (norm): BatchNorm2d(128, eps=1e-05, momentum=0.1, affine=True, track_running_stats=True)
      )
      (pointwise): Conv2d(
        128, 32, kernel_size=(1, 1), stride=(1, 1), bias=False
        (norm): BatchNorm2d(32, eps=1e-05, momentum=0.1, affine=True, track_running_stats=True)
      )
    )
    (offset_predictor): Conv2d(32, 2, kernel_size=(1, 1), stride=(1, 1))
    (center_loss): MSELoss()
    (offset_loss): L1Loss()
  )
)
[32m[05/25 17:43:30 fvcore.common.checkpoint]: [0m[Checkpointer] Loading from output/xception65_dsconv_369/model_0029999.pth ...
[32m[05/25 17:43:31 d2.checkpoint.c2_model_loading]: [0mFollowing weights matched with model:
| Names in Model                                               | Names in Checkpoint                                                                                                                                   | Shapes                                          |
…
