…
│    │    └─CrossEntropyLoss: 3-77                                --                        --
├─PanopticDeepLabInsEmbedHead: 1-3                                --                        (recursive)
│    └─ModuleDict: 2-31                                           --                        --
│    │    └─ModuleDict: 3-78                                      --                        33,312
│    │    └─ModuleDict: 3-79                                      --                        96,576
│    │    └─ModuleDict: 3-80                                      --                        3,019,520
├─d2_xception_65: 1-4                                             [1, 2048, 64, 128]        --
│    └─Conv2d: 2-32                                               [1, 32, 512, 1024]        864
│    └─BatchNorm2d: 2-33                                          [1, 32, 512, 1024]        64
│    └─ReLU: 2-34                                                 [1, 32, 512, 1024]        --
│    └─Conv2d: 2-35                                               [1, 64, 512, 1024]        18,432
│    └─BatchNorm2d: 2-36                                          [1, 64, 512, 1024]        128
│    └─ReLU: 2-37                                                 [1, 64, 512, 1024]        --
│    └─XceptionBlock: 2-38                                        [1, 128, 256, 512]        --
│    │    └─SeparableConv2d: 3-81                                 [1, 128, 512, 1024]       9,152
│    │    └─SeparableConv2d: 3-82                                 [1, 128, 512, 1024]       18,048
│    │    └─SeparableConv2d: 3-83                                 [1, 128, 256, 512]        18,048
│    │    └─Conv2d: 3-84                                          [1, 128, 256, 512]        8,192
│    │    └─BatchNorm2d: 3-85                                     [1, 128, 256, 512]        256
│    └─XceptionBlock: 2-39                                        [1, 256, 128, 256]        --
│    │    └─SeparableConv2d: 3-86                                 [1, 256, 256, 512]        34,688
│    │    └─SeparableConv2d: 3-87                                 [1, 256, 256, 512]        68,864
│    │    └─SeparableConv2d: 3-88                                 [1, 256, 128, 256]        68,864
│    │    └─Conv2d: 3-89                                          [1, 256, 128, 256]        32,768
│    │    └─BatchNorm2d: 3-90                                     [1, 256, 128, 256]        512
│    └─XceptionBlock: 2-40                                        [1, 728, 64, 128]         --
│    │    └─SeparableConv2d: 3-91                                 [1, 728, 128, 256]        190,640
│    │    └─SeparableConv2d: 3-92                                 [1, 728, 128, 256]        539,448
│    │    └─SeparableConv2d: 3-93                                 [1, 728, 64, 128]         539,448
│    │    └─Conv2d: 3-94                                          [1, 728, 64, 128]         186,368
│    │    └─BatchNorm2d: 3-95                                     [1, 728, 64, 128]         1,456
│    └─XceptionBlock: 2-41                                        [1, 728, 64, 128]         --
│    │    └─SeparableConv2d: 3-96                                 [1, 728, 64, 128]         539,448
│    │    └─SeparableConv2d: 3-97                                 [1, 728, 64, 128]         539,448
│    │    └─SeparableConv2d: 3-98                                 [1, 728, 64, 128]         539,448
│    └─XceptionBlock: 2-42                                        [1, 728, 64, 128]         --
│    │    └─SeparableConv2d: 3-99                                 [1, 728, 64, 128]         539,448
│    │    └─SeparableConv2d: 3-100                                [1, 728, 64, 128]         539,448
│    │    └─SeparableConv2d: 3-101                                [1, 728, 64, 128]         539,448
│    └─XceptionBlock: 2-43                                        [1, 728, 64, 128]         --
│    │    └─SeparableConv2d: 3-102                                [1, 728, 64, 128]         539,448
│    │    └─SeparableConv2d: 3-103                                [1, 728, 64, 128]         539,448
│    │    └─SeparableConv2d: 3-104                                [1, 728, 64, 128]         539,448
│    └─XceptionBlock: 2-44                                        [1, 728, 64, 128]         --
│    │    └─SeparableConv2d: 3-105                                [1, 728, 64, 128]         539,448
│    │    └─SeparableConv2d: 3-106                                [1, 728, 64, 128]         539,448
│    │    └─SeparableConv2d: 3-107                                [1, 728, 64, 128]         539,448
│    └─XceptionBlock: 2-45                                        [1, 728, 64, 128]         --
│    │    └─SeparableConv2d: 3-108                                [1, 728, 64, 128]         539,448
│    │    └─SeparableConv2d: 3-109                                [1, 728, 64, 128]         539,448
│    │    └─SeparableConv2d: 3-110                                [1, 728, 64, 128]         539,448
│    └─XceptionBlock: 2-46                                        [1, 728, 64, 128]         --
│    │    └─SeparableConv2d: 3-111                                [1, 728, 64, 128]         539,448
│    │    └─SeparableConv2d: 3-112                                [1, 728, 64, 128]         539,448
│    │    └─SeparableConv2d: 3-113                                [1, 728, 64, 128]         539,448
│    └─XceptionBlock: 2-47                                        [1, 728, 64, 128]         --
│    │    └─SeparableConv2d: 3-114                                [1, 728, 64, 128]         539,448
│    │    └─SeparableConv2d: 3-115                                [1, 728, 64, 128]         539,448
│    │    └─SeparableConv2d: 3-116                                [1, 728, 64, 128]         539,448
│    └─XceptionBlock: 2-48                                        [1, 728, 64, 128]         --
│    │    └─SeparableConv2d: 3-117                                [1, 728, 64, 128]         539,448
│    │    └─SeparableConv2d: 3-118                                [1, 728, 64, 128]         539,448
│    │    └─SeparableConv2d: 3-119                                [1, 728, 64, 128]         539,448
│    └─XceptionBlock: 2-49                                        [1, 728, 64, 128]         --
│    │    └─SeparableConv2d: 3-120                                [1, 728, 64, 128]         539,448
│    │    └─SeparableConv2d: 3-121                                [1, 728, 64, 128]         539,448
│    │    └─SeparableConv2d: 3-122                                [1, 728, 64, 128]         539,448
│    └─XceptionBlock: 2-50                                        [1, 728, 64, 128]         --
│    │    └─SeparableConv2d: 3-123                                [1, 728, 64, 128]         539,448
│    │    └─SeparableConv2d: 3-124                                [1, 728, 64, 128]         539,448
│    │    └─SeparableConv2d: 3-125                                [1, 728, 64, 128]         539,448
│    └─XceptionBlock: 2-51                                        [1, 728, 64, 128]         --
│    │    └─SeparableConv2d: 3-126                                [1, 728, 64, 128]         539,448
│    │    └─SeparableConv2d: 3-127                                [1, 728, 64, 128]         539,448
│    │    └─SeparableConv2d: 3-128                                [1, 728, 64, 128]         539,448
│    └─XceptionBlock: 2-52                                        [1, 728, 64, 128]         --
│    │    └─SeparableConv2d: 3-129                                [1, 728, 64, 128]         539,448
│    │    └─SeparableConv2d: 3-130                                [1, 728, 64, 128]         539,448
│    │    └─SeparableConv2d: 3-131                                [1, 728, 64, 128]         539,448
│    └─XceptionBlock: 2-53                                        [1, 728, 64, 128]         --
│    │    └─SeparableConv2d: 3-132                                [1, 728, 64, 128]         539,448
│    │    └─SeparableConv2d: 3-133                                [1, 728, 64, 128]         539,448
│    │    └─SeparableConv2d: 3-134                                [1, 728, 64, 128]         539,448
│    └─XceptionBlock: 2-54                                        [1, 728, 64, 128]         --
│    │    └─SeparableConv2d: 3-135                                [1, 728, 64, 128]         539,448
│    │    └─SeparableConv2d: 3-136                                [1, 728, 64, 128]         539,448
│    │    └─SeparableConv2d: 3-137                                [1, 728, 64, 128]         539,448
│    └─XceptionBlock: 2-55                                        [1, 728, 64, 128]         --
│    │    └─SeparableConv2d: 3-138                                [1, 728, 64, 128]         539,448
│    │    └─SeparableConv2d: 3-139                                [1, 728, 64, 128]         539,448
│    │    └─SeparableConv2d: 3-140                                [1, 728, 64, 128]         539,448
│    └─XceptionBlock: 2-56                                        [1, 728, 64, 128]         --
│    │    └─SeparableConv2d: 3-141                                [1, 728, 64, 128]         539,448
│    │    └─SeparableConv2d: 3-142                                [1, 728, 64, 128]         539,448
│    │    └─SeparableConv2d: 3-143                                [1, 728, 64, 128]         539,448
│    └─XceptionBlock: 2-57                                        [1, 1024, 64, 128]        --
│    │    └─SeparableConv2d: 3-144                                [1, 728, 64, 128]         539,448
│    │    └─SeparableConv2d: 3-145                                [1, 1024, 64, 128]        755,528
│    │    └─SeparableConv2d: 3-146                                [1, 1024, 64, 128]        1,061,888
│    │    └─Conv2d: 3-147                                         [1, 1024, 64, 128]        745,472
│    │    └─BatchNorm2d: 3-148                                    [1, 1024, 64, 128]        2,048
│    └─XceptionBlock: 2-58                                        [1, 2048, 64, 128]        --
│    │    └─SeparableConv2d: 3-149                                [1, 1536, 64, 128]        1,587,200
│    │    └─SeparableConv2d: 3-150                                [1, 1536, 64, 128]        2,379,264
│    │    └─SeparableConv2d: 3-151                                [1, 2048, 64, 128]        3,166,720
├─PanopticDeepLabSemSegHead: 1-5                                  [1, 19, 1024, 2048]       --
│    └─DepthwiseSeparableConv2d: 2-59                             [1, 256, 256, 512]        --
│    │    └─Conv2d: 3-152                                         [1, 256, 256, 512]        6,912
│    │    └─Conv2d: 3-153                                         [1, 256, 256, 512]        66,048
│    └─Conv2d: 2-60                                               [1, 19, 256, 512]         4,883
├─PanopticDeepLabInsEmbedHead: 1-6                                [1, 1, 1024, 2048]        --
│    └─Sequential: 2-61                                           [1, 32, 256, 512]         --
│    │    └─Conv2d: 3-154                                         [1, 128, 256, 512]        147,712
│    │    └─Conv2d: 3-155                                         [1, 32, 256, 512]         36,928
│    └─Conv2d: 2-62                                               [1, 1, 256, 512]          33
│    └─DepthwiseSeparableConv2d: 2-63                             [1, 32, 256, 512]         --
│    │    └─Conv2d: 3-156                                         [1, 128, 256, 512]        3,456
│    │    └─Conv2d: 3-157                                         [1, 32, 256, 512]         4,160
│    └─Conv2d: 2-64                                               [1, 2, 256, 512]          66
===================================================================================================================
Total params: 38,956,838
Trainable params: 38,956,838
Non-trainable params: 0
Total mult-adds (G): 368.84
===================================================================================================================
Input size (MB): 25.17
Forward/backward pass size (MB): 23517.47
…
